…
  warn("The default mode, 'constant', will be changed to 'reflect' in "
C:\Users\bspen\Anaconda3\lib\site-packages\skimage\transform\_warps.py:110: UserWarning: Anti-aliasing will be enabled by default in skimage 0.15 to avoid aliasing artifacts when down-sampling images.
  warn("Anti-aliasing will be enabled by default in skimage 0.15 to "

Image processing took 362.893905878067 seconds
_________________________________________________________________
Layer (type)                 Output Shape              Param #   
=================================================================
conv2d_1 (Conv2D)            (None, 100, 100, 32)      320       
_________________________________________________________________
leaky_re_lu_1 (LeakyReLU)    (None, 100, 100, 32)      0         
_________________________________________________________________
max_pooling2d_1 (MaxPooling2 (None, 50, 50, 32)        0         
_________________________________________________________________
dropout_1 (Dropout)          (None, 50, 50, 32)        0         
_________________________________________________________________
conv2d_2 (Conv2D)            (None, 50, 50, 64)        18496     
_________________________________________________________________
leaky_re_lu_2 (LeakyReLU)    (None, 50, 50, 64)        0         
_________________________________________________________________
max_pooling2d_2 (MaxPooling2 (None, 25, 25, 64)        0         
_________________________________________________________________
dropout_2 (Dropout)          (None, 25, 25, 64)        0         
_________________________________________________________________
conv2d_3 (Conv2D)            (None, 25, 25, 128)       73856     
_________________________________________________________________
leaky_re_lu_3 (LeakyReLU)    (None, 25, 25, 128)       0         
_________________________________________________________________
max_pooling2d_3 (MaxPooling2 (None, 13, 13, 128)       0         
_________________________________________________________________
dropout_3 (Dropout)          (None, 13, 13, 128)       0         
_________________________________________________________________
flatten_1 (Flatten)          (None, 21632)             0         
_________________________________________________________________
dense_1 (Dense)              (None, 128)               2769024   
_________________________________________________________________
leaky_re_lu_4 (LeakyReLU)    (None, 128)               0         
_________________________________________________________________
dropout_4 (Dropout)          (None, 128)               0         
_________________________________________________________________
dense_2 (Dense)              (None, 196)               25284     
=================================================================
Total params: 2,886,980
Trainable params: 2,886,980
Non-trainable params: 0
_________________________________________________________________
Train on 800 samples, validate on 201 samples
Epoch 1/20
2018-11-01 18:31:56.193826: I tensorflow/core/platform/cpu_feature_guard.cc:141] Your CPU supports instructions that this TensorFlow binary was not compiled to use: AVX AVX2
…
